nets/value.pth (torch_old, 643929 bytes, 25 tensors)

a1.weight f4 [16, 5, 3, 3]
0.02142669 -4.787638 -0.87185925 -0.027975474 -1.7837074 0.030993478 -0.9656457 -1.4042203
-0.3464323 -0.451158 1.2236984 0.012445774 0.41235453 0.5053228 -0.19238207 0.53786176
0.95900697 0.06610513 0.23235692 -1.1317099 0.024077477 -0.20399827 -0.3639687 0.02647533
0.76239794 0.8287184 0.37704346 0.15861307 1.512498 0.7497139 -0.055121437 1.0367831
-0.014866487 -0.20943047 -0.38237727 -0.2927305 -0.1879512 0.058631454 -0.077415526 0.051705405
0.103284165 -0.07979354 0.10465544 -0.010027326 0.005342069 0.27701563 0.96137863 1.0468668
0.31692135 0.6172696 0.8947368 0.40197042 1.4370258 0.93627155 0.02271951 0.4232238
0.023466354 0.006369 -0.42995888 0.44966474 -0.22233222 -0.14591096 0.08044511 0.008171621
-0.3302672 0.4623077 0.02003649 0.17315888 -0.55978346 -0.13954318 0.61500776 -0.47259963
0.08082264 -0.09862912 -0.3222005 -0.26215127 -0.05856851 0.015459484 -0.10135795 0.33557245
0.5438868 -0.0015274957 0.0002534445 -0.057441197 -0.051262513 0.032546222 0.16711885 -0.08702602
-0.022996701 0.0050274897 -0.267133 1.7617602 0.74447197 1.1556612 0.18706647 0.18595842
0.059385017 -0.08843908 -0.26388305 -0.26362824 0.5160369 0.3471528 1.2829149 -0.20087868
0.07040127 0.12081961 -0.01974262 0.17469111 -0.44025102 -0.86571574 -0.42324808 -1.2382178
-0.3464601 0.017644994 -0.13781747 0.045429606 0.10332713 -0.53442466 0.37989467 0.13626914
0.10479774 -0.13167386 -0.067134485 -0.08708545 0.20170194 0.124503665 0.06891741 0.10071208
-0.06400947 -0.039016858 0.13394013 -0.097187676 -0.081621654 -0.06215505 0.02311588 0.21385102
0.84369004 0.53052723 0.9853323 0.43506584 1.4597698 0.579103 -0.3804766 0.14820476
0.3229319 -0.37583876 0.23644833 -0.018412521 -0.5807402 0.29583514 -0.31189516 -0.22667545
0.1938067 -0.16562529 1.1268575 -0.19541451 0.4743764 -0.2921426 0.42849648 -0.28395545
-0.5781806 -0.11475612 -0.03258869 -0.46473193 0.08488661 0.04704139 -1.1380291 0.09119479
-0.08259598 -0.8822495 -0.026109345 -0.09212254 -0.07225882 0.0020375082 0.05344478 0.09832123
-0.053027596 0.0077463756 0.046365093 0.0098147215 -1.2624353 -0.10193476 -0.2292272 -2.8348384
0.271609 -0.18412745 0.4269369 0.006543496 -0.116082534 1.4465901 0.1958361 0.039757326
2.8299723 -0.4284684 0.1347137 -0.3025992 -0.03720617 0.06988471 -1.4208632 -0.19356595
0.3369696 -2.8082006 -0.28216925 -0.083411634 0.44475526 -0.0022161254 0.006839329 -0.5760348
-0.009562264 0.11389196 -1.6792042 0.110554844 0.08595565 -0.68439394 0.059974823 0.09962731
-0.040436085 0.043502424 -0.028913215 0.067914724 -0.030031554 0.011780447 -0.009123723 -0.050044104
-0.018842377 0.068232685 -0.27692163 0.04766353 0.16101664 0.38878942 -0.03966663 0.4718755
-0.5759499 0.24348603 0.14158149 0.052196838 0.18942432 0.08288922 -0.1829851 0.9511394
0.051459398 -2.7362182 0.57585996 0.08813068 0.18741623 0.082135715 -0.20089816 0.17311887
0.16743408 -0.27638143 -2.2540503 0.58431774 -0.04651463 -0.1280894 -0.18135494 -0.18197729
00000000: 0787 af3c 5534 99c0 2b32 5fbf d22c e5bc
00000010: 8650 e4bf 09e6 fd3c 8e34 77bf 7ebd b3bf
00000020: 935f b1be 2efe e6be 26a2 9c3f 5ce9 4b3c
00000030: 2220 d33e d65c 013f ceff 44be 4fb1 093f
00000040: 7b81 753f 2062 873d f9ee 6d3e dfdb 90bf
00000050: 213e c53c ece4 50be 1b5a babe cbe2 d83c
00000060: 832c 433f e426 543f d70b c13e 776b 223e
00000070: 8999 c13f 40ed 3f3f 04c7 61bd 4fb5 843f
00000080: 9192 73bc f174 56be f4c6 c3be c6e0 95be
00000090: 4876 40be 8927 703d 088c 9ebd 0cc9 533d
000000a0: a686 d33d cc6a a3bd 9755 d63d a749 24bc
000000b0: 860c af3b fed4 8d3e e91c 763f bbff 853f
000000c0: 8443 a23e 6105 1e3f 790d 653f 11cf cd3e
000000d0: 76f0 b73f 7eaf 6f3f 441e ba3c cab0 d83e
000000e0: 833c c03c 0bb3 d03b 9223 dcbe 753a e63e
000000f0: 0fab 63be af69 15be 68c0 a43d 43e2 053c
00000100: c818 a9be 98b3 ec3e 9123 a43c 9050 313e
00000110: f84d 0fbf 68e4 0ebe 2671 1d3f 94f8 f1be
00000120: 5786 a53d 10fe c9bd 77f7 a4be b138 86be
00000130: 89e5 6fbd c749 7d3c c294 cfbd 27d0 ab3e
00000140: 2a3c 0b3f 4036 c8ba bfe0 8439 7647 6bbd
00000150: a4f8 51bd 304f 053d 3421 2b3e b33a b2bd
00000160: 9463 bcbc a4bd a43b a8c5 88be 5c81 e13f
00000170: b795 3e3f b5ec 933f 5a8e 3f3e e26b 3e3e
00000180: b43d 733d 8c1f b5bd ae1b 87be 48fa 86be
00000190: ff1a 043f 03be b13e 8e36 a43f 24b3 4dbe
000001a0: 8b2e 903d 4670 f73d 46bb a1bc 3ae2 323e
000001b0: 9568 e1be 8c9f 5dbf f9b3 d8be ec7d 9ebf
000001c0: 3863 b1be 3c8c 903c 0620 0dbe 6514 3a3d
000001d0: 2d9d d33d 0ed0 08bf 8e81 c23e 238a 0b3e
000001e0: 33a0 d63d 83d5 06be ce7d 89bd db59 b2bd
000001f0: f48a 4e3e c7fb fe3d 9224 8d3d 2342 ce3d
00000200: 6617 83bd 24d0 1fbd 9a27 093e 550a c7bd
00000210: 4129 a7bd 4b96 7ebd 845d bd3c c3fb 5a3e
00000220: 12fc 573f a2d0 073f bd3e 7c3f f3c0 de3e
00000230: bdd9 ba3f 1840 143f d4cd c2be fdc2 173e
00000240: 5457 a53e f06d c0be 831f 723e dbd5 96bc
00000250: 64ab 14bf b477 973e b9b0 9fbe 9c1d 68be
00000260: 4375 463e ad99 29be de3c 903f be1a 48be
00000270: 77e1 f23e b793 95be e463 db3e 9c62 91be
00000280: a503 14bf 4205 ebbd b87b 05bd 58f1 edbe
00000290: 08d9 ad3d 79ae 403d f0aa 91bf 56c4 ba3d
000002a0: 1528 a9bd 1adb 61bf 44e3 d5bc beaa bcbd
000002b0: 6ffc 93bd b787 053b eae8 5a3d a45c c93d
000002c0: 7733 59bd 4fd5 fd3b 53e9 3d3d edcd 203c
000002d0: 7b97 a1bf 2cc3 d0bd 89ba 6abe fe6d 35c0
000002e0: 5610 8b3e e88b 3cbe 7997 da3e d36a d63b
000002f0: aebc edbd dd29 b93f 4289 483e 94d8 223d
00000300: 441e 3540 3660 dbbe 63f2 093e 48ee 9abe
00000310: 7f65 18bd b71f 8f3d d8de b5bf 2736 46be
00000320: 4887 ac3e 8fb9 33c0 7d78 90be b8d3 aabd
00000330: f6b6 e33e 6a3c 11bb 731c e03b 0477 13bf
00000340: 0bab 1cbc 3040 e93d 2af0 d6bf 946a e23d
00000350: 8409 b03d 7134 2fbf 29a8 753d 6709 cc3d
00000360: 4fa0 25bd 992f 323d 68db ecbc e016 8b3d
00000370: bc04 f6bc c702 413c ab7b 15bc 0cfb 4cbd
00000380: 545b 9abc 94bd 8b3d acc8 8dbe d53a 433d
00000390: 8ce1 243e 680f c73e 7a79 22bd aa99 f13e
000003a0: 7471 13bf 6754 793e bdfa 103e 5acc 553d
000003b0: 73f8 413e d3c1 a93d 7260 3bbe df7d 733f
000003c0: 17c7 523d 331e 2fc0 8f6b 133f dc7d b43d
000003d0: 0aea 3f3e c536 a83d 3fb8 4dbe 1346 313e
000003e0: d773 2b3e de81 8dbe 5c42 10c0 d995 153f
000003f0: 2086 3ebd de29 03be 1cb5 39be 4158 3abe

a1.bias f4 [16]
0.21677296 -0.71359515 -0.5679705 0.32825747 -0.14985377 -0.26376483 -0.5091034 -0.29452726
-0.14903861 0.37136513 -0.69257176 -0.2305565 -0.22487964 0.44898668 -0.23140077 0.5194244
00000000: bbf9 5d3e 2cae 36bf 8466 11bf 5d11 a83e
00000010: 4473 19be 2f0c 87be 9a54 02bf 47cc 96be
00000020: 949d 18be 9223 be3e 624c 31bf 0117 6cbe
00000030: d946 66be 95e1 e53e 53f4 6cbe fff8 043f

a2.weight f4 [16, 16, 3, 3]
-0.4804872 -0.9921476 -0.6540998 -0.544943 -0.025460906 0.63828236 -0.9232046 -1.4958308
0.36345798 -0.047517873 -0.0743691 -0.082442775 -0.010733635 0.46603522 0.64902645 -1.1153095
0.35215726 -0.049035046 0.8249371 1.058662 0.41282654 0.8374458 0.7733157 -0.10271623
0.95028156 1.0112826 0.53150976 -0.40755257 -0.42857254 0.27284682 -0.101681754 -0.67594945
0.2785878 0.09225185 0.37654093 -0.09846499 -0.3928692 0.028430132 -0.32278472 -0.20956315
0.2448722 0.07782382 -0.39415833 -0.28397897 -0.7418698 -0.12685406 0.84991497 -0.6751231
0.016616488 -0.6595962 0.3909068 0.3739169 0.024223447 -0.19165839 -1.5939947 -0.18045984
-0.69916445 -0.56166655 -0.27815625 -0.14868665 -0.8390159 0.079736 0.009639911 0.092813276
0.20733328 -0.058302715 -0.9675286 0.3812438 0.20386797 0.22872056 0.27196655 0.64396524
-0.9308844 -0.7426382 -0.042635467 0.68237954 0.04910735 0.780068 0.908832 0.12845652
0.38496253 0.08853449 0.4145499 -0.35550222 0.8270703 0.74479765 -0.21630903 -0.33342707
-0.031705476 0.04291974 -0.78568465 0.4123797 0.46330845 -0.18511073 0.96109015 -0.038453836
0.47279036 -1.2413614 0.12168463 -0.9211834 -0.6176141 -0.34581292 0.26788464 -0.14942236
0.4109081 -0.7287125 -0.31705448 -0.29281688 -0.73101723 0.098704495 -0.7445114 -0.72566223
-1.2321442 -0.7791441 -0.3733853 -0.7597873 -0.6055275 -0.6482624 0.15160152 -0.1615152
-0.98074615 1.4093274 -0.5722137 -0.85172457 -0.35110733 -0.42885938 -0.17816982 -0.21645646
-0.17237072 0.020039346 -1.3628362 0.16658528 1.053351 0.4856174 0.105499424 -1.850182
0.31565812 -0.24579985 -0.28507373 -0.27898076 0.25016913 0.103718996 -0.09616026 -0.4531947
-0.08806723 -0.0919023 -0.063841276 -0.011273249 -0.075689435 -0.061119784 -0.040487334 -0.11595149
-0.063930415 -0.007828777 -0.06301883 -0.109914765 -0.04268076 0.006146095 0.0012699085 0.0012689725
-0.043190103 -0.009136675 -0.024423078 -0.04120223 0.03671796 0.055028267 0.026643543 0.017258173
-0.0030141512 -0.086739466 0.0004225489 0.017425572 -0.07482447 -0.105213106 -0.08377237 -0.08774824
-0.054910775 -0.028019134 -0.071455486 -0.021995138 0.0031102905 -0.08727344 -0.049434282 0.03683812
-0.079226516 -0.013541147 -0.06804882 0.016447099 -0.029084139 0.016970674 0.018329494 -0.009288535
-0.038688418 0.043805912 0.01134823 -0.079048544 -0.09389864 -0.07921032 -0.03564934 0.044723853
0.0013228199 -0.09027455 -0.085459605 -0.01817519 0.023854164 0.017632429 0.04995714 0.012354734
-0.032858193 0.03201104 -0.073399365 -0.044961993 -0.06782283 -0.046462413 -0.049525473 0.03780403
0.027951831 -0.039531134 -0.022909526 -0.02472682 0.06476268 -0.07168075 -0.07844194 -0.027309611
-0.057598542 -0.044451278 -0.06974894 -0.041675217 -0.103976846 -0.08864996 -0.058661744 -0.011142476
-0.1014959 -0.009972839 -0.08901328 -0.078344144 -0.09272422 -0.0020419909 -0.051622726 -0.10882771
-0.08556457 -0.013717757 -0.08757473 -0.0607896 -0.07594101 -0.03681437 -0.028150603 -0.06190536
-0.0026744234 0.0044669677 -0.049064234 -0.08627883 -0.051753197 -0.003482848 -0.006117005 -0.033093438
00000000: 6b02 f6be 63fd 7dbf 1673 27bf 6281 0bbf
00000010: 6493 d0bc 7966 233f 2357 6cbf 6277 bfbf
00000020: 2a17 ba3e 1aa2 42bd d44e 98bd c2d7 a8bd
00000030: 21dc 2fbc 2b9c ee3e 9926 263f 76c2 8ebf
00000040: f54d b43e f9d8 48bd 142f 533f 3d82 873f
00000050: 005e d33e d962 563f 05f8 453f e35c d2bd
00000060: a745 733f b571 813f 0611 083f bbaa d0be
00000070: dc6d dbbe 94b2 8b3e 863e d0bd 060b 2dbf
00000080: 0fa3 8e3e 8aee bc3d f9c9 c03e 03a8 c9bd
00000090: 2726 c9be 4fe6 e83c 0a44 a5be b997 56be
000000a0: c7bf 7a3e 1862 9f3d 1fcf c9be b165 91be
000000b0: 2eeb 3dbf 08e6 01be 0794 593f ded4 2cbf
000000c0: 4d1f 883c 4cdb 28bf f024 c83e 0972 bf3e
000000d0: 4070 c63c 1942 44be 0508 ccbf 77ca 38be
000000e0: 71fc 32bf 61c9 0fbf 7f6a 8ebe 5041 18be
000000f0: bfc9 56bf a14c a33d b8f0 1d3c e314 be3d
00000100: 2d4f 543e d4ce 6ebd f4af 77bf 6332 c33e
00000110: c4c2 503e b935 6a3e 333f 8b3e e8da 243f
00000120: 714e 6ebf 891d 3ebf 87a2 2ebd 6db0 2e3f
00000130: ca24 493d 89b2 473f 37a9 683f 1b8a 033e
00000140: cf19 c53e 9251 b53d e23f d43e 6304 b6be
00000150: e1ba 533f 0fab 3e3f 1d80 5dbe f4b6 aabe
00000160: 9add 01bd 9ccc 2f3d a122 49bf 6f23 d33e
00000170: c436 ed3e ab8d 3dbe 010a 763f c581 1dbd
00000180: 9411 f23e eee4 9ebf cb35 f93d add2 6bbf
00000190: f51b 1ebf 640e b1be 2d28 893e 2d02 19be
000001a0: 8c62 d23e e78c 3abf f754 a2be 18ec 95be
000001b0: f223 3bbf 9525 ca3d 4d98 3ebf 00c5 39bf
000001c0: e7b6 9dbf fd75 47bf 5c2c bfbe 6c81 42bf
000001d0: da03 1bbf 86f4 25bf 6e3d 1b3e 3e64 25be
000001e0: 2e12 7bbf d764 b43f 997c 12bf 9f0a 5abf
000001f0: 57c4 b3be 7593 dbbe 2672 36be c3a6 5dbe
00000200: f381 30be 8e29 a43c 6b71 aebf 5595 2a3e
00000210: 35d4 863f d8a2 f83e 1510 d83d c4d2 ecbf
00000220: f19d a13e f5b2 7bbe 2ff5 91be 91d6 8ebe
00000230: 2b16 803e a06a d43d acef c4bd 2309 e8be
00000240: 985c b4bd 4637 bcbd 37bf 82bd 6fb3 38bc
00000250: 1003 9bbd bd58 7abd 0cd6 25bd fa77 edbd
00000260: f3ed 82bd 4544 00bc 0410 81bd fe1a e1bd
00000270: 05d2 2ebd 2f65 c93b 0f73 a63a a753 a63a
00000280: 1be8 30bd feb1 15bc e812 c8bc abc3 28bd
00000290: 9265 163d 5265 613d 8f43 da3c 0361 8d3c
000002a0: 1189 45bb 76a4 b1bd 8e89 dd39 13c0 8e3c
000002b0: 923d 99bd f879 d7bd d990 abbd 59b5 b3bd
000002c0: 1fea 60bd 6288 e5bc 4157 92bd 262f b4bc
000002d0: 04d6 4b3b 6bbc b2bd 9a7b 4abd 92e3 163d
000002e0: 8341 a2bd b0db 5dbc 2e5d 8bbd 11bc 863c
000002f0: dc41 eebc 1506 8b3c bc27 963c f12e 18bc
00000300: bf77 1ebd d46d 333d eded 393c 34e4 a1bd
00000310: ee4d c0bd 0539 a2bd 0b05 12bd 5c30 373d
00000320: 7862 ad3a dde1 b8bd 7205 afbd 23e4 94bc
00000330: cf69 c33c e271 903c dc9f 4c3d 836b 4a3c
00000340: 5096 06bd 021e 033d 6852 96bd 112a 38bd
00000350: b2e6 8abd 5f4f 3ebd 39db 4abd 66d8 1a3d
00000360: 3dfb e43c 66eb 21bd c2ac bbbc e68f cabc
00000370: 4ca2 843d 5bcd 92bd 2ba6 a0bd 68b8 dfbc
00000380: 73ec 6bbd 8b12 36bd 88d8 8ebd a2b3 2abd
00000390: d0f1 d4bd 1c8e b5bd 4c47 70bd ef8e 36bc
000003a0: 15dd cfbd 1e65 23bc 984c b6bd e572 a0bd
000003b0: 32e6 bdbd ecd2 05bb 5a72 53bd 10e1 debd
000003c0: 7a3c afbd 71c0 60bc 615a b3bd 84fe 78bd
000003d0: f686 9bbd aaca 16bd 189c e6bc 7a90 7dbd
000003e0: 6145 2fbb a45f 923b 94f7 48bd f5b2 b0bd
000003f0: 29fb 53bd 7e40 64bb 2871 c8bb fc8c 07bd

a2.bias f4 [16]
0.47016597 -0.110508636 -0.087547086 -1.0858883 -0.13010222 -0.12603287 -0.19945718 0.24255605
0.53070444 -0.08002458 1.8153721 -0.12719731 -0.15311573 -0.6876297 0.8540566 0.27522486
00000000: 98b9 f03e 5a52 e2bd e34b b3bd 63fe 8abf
00000010: 8439 05be c30e 01be 813e 4cbe 9d60 783e
00000020: 3fdc 073f ede3 a3bd 1d5e e83f 0340 02be
00000030: 5fca 1cbe 8008 30bf 74a3 5a3f 46ea 8c3e

a3.weight f4 [32, 16, 3, 3]
-0.038076308 -0.086969405 -0.06351203 -0.07982199 -0.007565014 0.03600485 0.04575044 -0.028231125
-0.09868666 -0.021794055 0.06663864 0.021040456 0.012155718 -0.057324853 0.018170068 -0.02395238
-0.010353541 0.0092100715 -0.006765019 0.027128045 -0.118165806 -0.08963329 -0.014746947 -0.05256144
-0.04111423 -0.08999549 -0.06711271 -0.064010665 -0.06383851 -0.05166354 0.034348194 0.032545578
-0.04077333 -0.088572495 -0.093865104 0.023770649 0.021330962 0.080662936 0.059563447 0.07292675
0.06292317 -0.010080109 0.010061934 0.047634676 0.061184708 0.030238088 0.06912202 0.006188729
0.07566538 0.06311633 -0.07219627 -0.034475215 -0.03421865 0.05775316 -0.026910929 -0.07252674
0.0032826697 -0.06793866 0.049644634 -0.0651146 0.02791529 0.03449774 0.016069826 0.017510394
-0.07027971 -0.091766335 -0.095119335 0.033237927 -0.13492662 -0.08146283 0.0021279927 0.019942213
-0.016569873 -0.0002116182 0.02026434 -0.046866227 -0.0020891365 -0.10715908 -0.047887303 -0.046077196
-0.057919398 -0.0021003408 -0.019606292 -0.04042052 -0.022393422 0.064101994 0.076767795 0.07058445
0.023683896 -0.004726539 -0.08006837 -0.015635185 -0.07850712 0.0025542066 -0.020170229 -0.10621918
-0.05856852 -0.014488488 -0.033174857 0.009010222 -0.06351352 0.0039396067 -0.014031163 -0.0072048157
0.057028636 -0.04830803 -0.019032365 0.06319341 0.072554 -0.021675395 -0.026446968 0.046335064
0.022588788 -0.07580413 -0.07804667 -0.037026893 -0.07657773 0.0010260687 -0.020910827 -0.06706887
-0.006473283 -0.04306731 -0.08002565 -0.031656805 -0.028335616 -0.002037613 -0.0019666324 0.010429502
0.03722234 -0.06773091 0.029707454 -0.12728082 -0.10601618 -0.04518549 -0.04471247 -0.06403447
-0.06261251 -0.06679159 0.0012050269 -0.03240026 -0.052669644 0.0065174364 -0.025077369 -0.016778382
0.8924852 -0.1621323 -0.5589844 1.2301834 -0.104766935 -0.100460105 -0.20029727 0.75611115
-0.31678292 0.068813294 -0.049103707 -0.021235822 0.032538533 0.009664615 -0.06778221 -0.06592377
-0.08029364 -0.023061879 0.1704475 -0.64248276 0.101008184 0.36999476 -0.26933494 0.08414346
0.6631652 -1.7198505 -0.08764534 0.060450878 -0.3066513 0.07280758 -0.4814998 -0.3488589
-0.77148575 0.34221196 -0.04163399 0.5959412 -0.027780097 0.0128437085 0.041652534 0.0635446
0.073763005 0.009844521 0.040213667 -0.066460975 0.06717041 0.027529204 0.019999811 -0.043661512
-0.017362846 0.0058526304 0.05338812 0.029449696 -0.007893906 -0.066069916 -0.0139827095 0.0380387
0.059565175 -0.06786071 0.078765236 0.022076527 0.010901556 0.052278005 -0.026722895 -0.18465887
0.09947999 0.3879684 0.6630271 -0.6742138 0.17075819 0.22450407 -1.4271159 -0.76297396
-0.024994077 -0.49972498 0.6697774 0.16404949 0.16818257 0.2030507 -0.65711147 0.1904626
-0.6163564 0.0012082461 0.0073613124 -0.032107547 0.055669013 -0.027015813 0.041113444 0.03751226
-0.023210661 0.03379531 -0.5225694 -0.48387 -0.59947854 0.13366637 -1.0917614 -0.5515592
0.44692725 -0.32146007 -0.6314538 0.06113323 0.043222066 -0.027597727 0.08053779 0.054064818
-0.050706152 -0.05244936 0.047584575 -0.017720994 0.07060992 0.017459648 -0.0034388693 -0.04394324
00000000: e7f5 1bbd 041d b2bd 9812 82bd b679 a3bd
00000010: f0e3 f7bb d279 133d d064 3b3d f644 e7bc
00000020: 3b1c cabd 7289 b2bc d779 883d 095d ac3c
00000030: c728 473c 77cd 6abd 65d9 943c c837 c4bc
00000040: e6a1 29bc d7e5 163c 18ad ddbb a23b de3c
00000050: ea00 f2bd a991 b7bd 2e9d 71bc aa4a 57bd
00000060: 6567 28bd 8e4f b8bd 6372 89bd 0618 83bd
00000070: c4bd 82bd 269d 53bd b1b0 0c3d 834e 053d
00000080: ef01 27bd 7f65 b5bd 593c c0bd aaba c23c
00000090: 45be ae3c 9c32 a53d cdf8 733d 9f5a 953d
000000a0: dddd 803d 0b27 25bc cfda 243c 941c 433d
000000b0: d19c 7a3d deb5 f73c d88f 8d3d d2ca ca3b
000000c0: 73f6 9a3d 2243 813d a3db 93bd e235 0dbd
000000d0: db28 0cbd 948e 6c3d 4f74 dcbc e688 94bd
000000e0: 0f22 573b 6d23 8bbd 2c58 4b3d ce5a 85bd
000000f0: 9bae e43c 814d 0d3d dea4 833c f571 8f3c
00000100: cfee 8fbd fdef bbbd edcd c2bd 7e24 083d
00000110: 342a 0abe fcd5 a6bd cb75 0b3b da5d a33c
00000120: 8bbd 87bc d4e5 5db9 6701 a63c cdf6 3fbd
00000130: e5e9 08bb 3876 dbbd 7a25 44bd 71bb 3cbd
00000140: e43c 6dbd dfa5 09bb 609d a0bc fd8f 25bd
00000150: 6972 b7bc e847 833d 6f38 9d3d 958e 903d
00000160: bb04 c23c 15e1 9abb e3fa a3bd 5c15 80bc
00000170: 57c8 a0bd 7a64 273b 093c a5bc 7189 d9bd
00000180: 8be5 6fbd 2061 6dbc 5ce2 07bd 9c9f 133c
00000190: 6013 82bd d117 813b f7e2 65bc 6016 ecbb
000001a0: dc96 693d a4de 45bd c3e9 9bbc 8c6b 813d
000001b0: 3197 943d 9990 b1bc 50a7 d8bc d6c9 3d3d
000001c0: 1f0c b93c 323f 9bbd efd6 9fbd 83a9 17bd
000001d0: c9d4 9cbd 277d 863a 2f4d abbc 675b 89bd
000001e0: d51d d4bb 5967 30bd 7de4 a3bd 91aa 01bd
000001f0: 1820 e8bc 7989 05bb 9ee2 00bb 81e0 2a3c
00000200: 7476 183d 81b6 8abd 0c5d f33c e755 02be
00000210: 031f d9bd 6c14 39bd 6c24 37bd 8124 83bd
00000220: fd3a 80bd 07ca 88bd fef1 9d3a 23b6 04bd
00000230: 20bc 57bd 3890 d53b 0e6f cdbc d172 89bc
00000240: e979 643f 0206 26be 9a19 0fbf a676 9d3f
00000250: 0c90 d6bd 07be cdbd ba1a 4dbe 8090 413f
00000260: 5f31 a2be fced 8c3d f820 49bd bff6 adbc
00000270: 2047 053d 5558 1e3c 66d1 8abd 0b03 87bd
00000280: fe70 a4bd 44ec bcbc ca89 2e3e c079 24bf
00000290: 61dd ce3d f46f bd3e 45e6 89be 6853 ac3d
000002a0: 32c5 293f 1024 dcbf 667f b3bd 579b 773d
000002b0: 6601 9dbe 241c 953d 2487 f6be a29d b2be
000002c0: 1780 45bf 6836 af3e 6788 2abd 9a8f 183f
000002d0: 1693 e3bc 6b6e 523c d99b 2a3d ac23 823d
000002e0: 0f11 973d ea4a 213c 16b7 243d b11c 88bd
000002f0: a490 893d ed84 e13c a5d6 a33c 6ad6 32bd
00000300: 873c 8ebc 6cc7 bf3b 80ad 5a3d 7d40 f13c
00000310: 7155 01bc aa4f 87bd bc17 65bc 78ce 1b3d
00000320: 9dfa 733d 8efa 8abd ab4f a13d d5d9 b43c
00000330: 719c 323c 7621 563d f9e9 dabc 3717 3dbe
00000340: 2abc cb3d cba3 c63e 25bc 293f 4799 2cbf
00000350: 3cdb 2e3e 65e4 653e bcab b6bf 4352 43bf
00000360: 61c0 ccbc f4db ffbe 8876 2b3f 97fc 273e
00000370: 0d38 2c3e 86ec 4f3e 7538 28bf a108 433e
00000380: 88c9 1dbf 035e 9e3a 2a37 f13b 3483 03bd
00000390: 3105 643d 4450 ddbc 9266 283d 75a6 193d
000003a0: 4924 bebc f36c 0a3d 1cc7 05bf cfbd f7be
000003b0: 6d77 19bf d6df 083e d6be 8bbf fc32 0dbf
000003c0: a6d3 e43e 6a96 a4be f5a6 21bf d666 7a3d
000003d0: 9f09 313d a114 e2bc fff0 a43d 1273 5d3d
000003e0: 41b1 4fbd 24d5 56bd 0be8 423d 9e2b 91bc
000003f0: ef9b 903d 8907 8f3c a75e 61bb d4fd 33bd

a3.bias f4 [32]
-0.08909247 -0.13205151 -0.4412851 -0.89118916 -0.1105045 -0.055126153 -0.5537599 0.08103962
-0.00912456 -0.10630216 -0.8998891 -0.097843505 -0.15426971 -1.0538093 -0.024747107 -0.15885423
-0.687637 0.092579395 1.164452 -0.23816393 -0.07945123 0.094362065 -0.3197526 -0.05940841
0.18617548 0.83925086 0.40497187 -0.592591 0.38110504 3.3337076 1.1465154 0.8993863
00000000: 1d76 b6bd 8338 07be 1ff0 e1be f924 64bf
00000010: 2f50 e2bd f6cb 61bd 35c3 0dbf 1af8 a53d
00000020: 2e7f 15bc f2b4 d9bd 225f 66bf 2d62 c8bd
00000030: e1f8 1dbe 39e3 86bf 72ba cabc afaa 22be
00000040: fa08 30bf 449a bd3d c30c 953f 3fe1 73be
00000050: 54b7 a2bd e640 c13d 9db6 a3be 3c56 73bd
00000060: c9a4 3e3e 25d9 563f 7958 cf3e 0bb4 17bf
00000070: 3320 c33e 775b 5540 04c1 923f 2e3e 663f

b1.weight f4 [32, 32, 3, 3]
-0.0745639 -0.04821462 -0.05804641 -0.070393085 -0.061481833 -0.024650697 -0.029711459 -0.0202759
0.060808334 0.062041547 -0.05251936 0.027908845 -0.020816296 -0.030233365 0.03630056 -0.05464861
0.047903325 0.042235527 -0.058252435 -0.03821193 -0.03701126 -0.050811112 -0.010869044 -0.050931178
-0.13266233 -0.034372564 -0.010434508 -0.010162251 -0.021628233 -0.005195221 -0.044071916 -0.08332784
0.0011590972 -0.017405985 -0.0121825 -0.08667788 0.025238538 -0.01608181 0.038580105 0.049029272
-0.009894687 0.047952197 0.04269275 -0.033567697 -0.014095837 -0.005979634 0.0081079975 0.015462287
-0.0030644701 -0.012440588 -0.008745263 -0.053861983 0.024238411 -0.032635696 -0.02643154 0.044771947
-0.06099323 -0.10818379 -0.1060115 -0.106778294 -0.058937132 -0.024699366 -0.12419479 0.013257372
-0.0843426 -0.052005395 -0.07266798 -0.09031028 -0.06974941 0.019989258 -0.10088025 -0.022179905
-0.002520558 0.0036327925 0.05762313 -0.033547033 0.016614879 -0.012683816 0.013394235 -0.031992737
-0.0124539845 0.028303934 -0.030992873 -0.0027512205 -0.045561366 0.03966723 -0.015828837 -0.03826317
0.026614603 0.05114345 -0.040025324 -0.03111531 -0.011995947 0.06720186 -0.14244512 -0.042883065
-0.026044823 -0.078840986 -0.0012292453 -0.05428242 -0.05196748 -0.0027692548 -0.007525429 0.041432783
0.009864125 0.043640673 -0.03704214 -0.028181389 0.027849164 0.011601132 0.019195106 0.06550939
-0.041928057 0.019771157 0.041833412 0.0061731935 0.021188911 0.009289673 -0.08888711 -0.07558453
0.0013814169 -0.04920814 -0.05869916 -0.042770192 -0.07145066 -0.0036029692 0.017861854 -0.021469494
0.022052245 -0.052605543 0.00074544747 -0.06206959 -0.041306 -0.038542766 -0.043037582 -0.014598725
-0.08919488 0.0134537695 0.005944701 0.024471512 -0.034359526 -0.02108384 -0.07256214 0.037715863
-0.038657147 0.030551594 0.028187022 -0.021876182 0.06731857 0.01739137 -0.050748065 0.039496712
-0.09683542 -0.085139126 -0.043468934 -0.05797382 -0.061128005 -0.08467707 -0.1295678 -0.065684065
-0.06525967 0.01746463 0.046634052 0.08017319 0.04719991 -0.06781087 -0.013312772 -0.040306173
-0.084010795 -0.08669771 -0.04906622 -0.07998813 -0.03812141 -0.10078083 -0.05742289 -0.10196486
-0.07801338 -0.09105243 -0.040602736 -0.06865706 -0.015802758 0.009382974 0.018756866 -0.06548843
-0.00022062655 0.056672297 0.04930464 -0.04308086 -0.05200863 -0.051087096 0.005876516 -0.044549398
-0.043245085 0.009460109 -0.0886093 -0.0066939066 -0.026066337 0.033588357 -0.021625282 -0.02914776
-0.08552449 -0.16387098 -0.09869121 -0.12848815 -0.03504702 -0.07872546 -0.06288939 0.061524887
0.044984967 -0.052917805 0.03390213 0.016252432 0.02210365 -0.025669472 -0.04888101 -0.023391807
0.012356581 -0.0032599745 -0.15067853 0.037963107 -0.10675234 0.0125306975 -0.045733165 -0.1294472
0.03646898 0.03502283 0.04139369 -0.082233235 0.018835098 0.040059857 0.0012322079 0.044019844
0.01801418 0.024360668 0.011897429 0.0048598424 -0.058947586 -0.06911328 -0.020654697 -0.10321205
-0.08672316 -0.101592466 0.01720374 -0.13667446 -0.094339654 -0.08250498 -0.04832341 -0.04012628
-0.055034466 0.030176051 -0.080854304 -0.07469343 0.021443253 -0.015540033 -0.05536792 -0.15038675
00000000: f5b4 98bd b27c 45bd 13c2 6dbd 402a 90bd
00000010: 60d4 7bbd 42f0 c9bc 7265 f3bc a519 a6bc
00000020: 2912 793d 471f 7e3d 8a1e 57bd 17a1 e43c
00000030: f086 aabc f6ab f7bc e5af 143d 39d7 5fbd
00000040: 4736 443d 29ff 2c3d 1b9a 6ebd 1d84 1cbd
00000050: 1e99 17bd 501f 50bd 1314 32bc 369d 50bd
00000060: a2d8 07be 3fca 0cbd 80f5 2abc 927f 26bc
00000070: b12d b1bc ac3c aabb c184 34bd c9a7 aabd
00000080: d9ec 973a ff96 8ebc 1c99 47bc 2c84 b1bd
00000090: 0dc1 ce3c 00be 83bc 2c06 1e3d ebd2 483d
000000a0: 531d 22bc 8669 443d 98de 2e3d 487e 09bd
000000b0: 3af2 66bc cef0 c3bb 68d7 043c 8855 7d3c
000000c0: 47d5 48bb 9cd3 4bbc 4b48 0fbc 629e 5cbd
000000d0: a28f c63c 02ad 05bd f586 d8bc ca62 373d
000000e0: 0ad4 79bd 778f ddbd 8f1c d9bd 94ae dabd
000000f0: 1068 71bd 5356 cabc d759 febd 7335 593c
00000100: d0bb acbd 9c03 55bd f3d2 94bd 99f4 b8bd
00000110: c7d8 8ebd 83c0 a33c 4e9a cebd a2b2 b5bc
00000120: f22f 25bb 2514 6e3b 3b06 6c3d 9d68 09bd
00000130: ed1b 883c c8cf 4fbc 7e73 5b3c d10a 03bd
00000140: cc0b 4cbc a7dd e73c c4e4 fdbc d24d 34bb
00000150: 8e9e 3abd 1b7a 223d 7aab 81bc d7b9 1cbd
00000160: de06 da3c cb7b 513d 98f1 23bd 89e5 febc
00000170: a68a 44bc 21a1 893d 22dd 11be 27a6 2fbd
00000180: f45b d5bc 6277 a1bd a11e a1ba 3e57 5ebd
00000190: dadb 54bd 637c 35bb e097 f6bb 6cb5 293d
000001a0: 249d 213c 90c0 323d 80b9 17bd a8dc e6bc
000001b0: ee23 e43c ad12 3e3c 0e3f 9d3c c929 863d
000001c0: c1bc 2bbd 1ff7 a13c 8359 2b3d 8048 ca3b
000001d0: 5e94 ad3c b633 183c 720a b6bd 10cc 9abd
000001e0: a910 b53a 798e 49bd 886e 70bd cc2f 2fbd
000001f0: b954 92bd cb1f 6cbb 0653 923c cbe0 afbc
00000200: e9a6 b43c e978 57bd 226a 433a af3c 7ebd
00000210: 7b30 29bd 05df 1dbd 2d48 30bd 7e2f 6fbc
00000220: ceab b6bd 336d 5c3c c4cb c23b 7b78 c83c
00000230: 93bc 0cbd 04b8 acbc 769b 94bd f37b 1a3d
00000240: f556 1ebd 5647 fa3c 78e8 e63c ae35 b3bc
00000250: 52de 893d 5978 8e3c 34dd 4fbd 4ec7 213d
00000260: a651 c6bd 6c5d aebd 7b0c 32bd f575 6dbd
00000270: 5c61 7abd 2c6b adbd 6cad 04be 5e85 86bd
00000280: dda6 85bd fc11 8f3c 5903 3f3d d731 a43d
00000290: b154 413d 6de0 8abd d01d 5abc 1618 25bd
000002a0: da0d acbd 928e b1bd a9f9 48bd d1d0 a3bd
000002b0: 3225 1cbd 2e66 cebd 4434 6bbd f4d2 d0bd
000002c0: 7bc5 9fbd b279 babd 0e4f 26bd 139c 8cbd
000002d0: c974 81bc 0cbb 193c 00a8 993c cc1e 86bd
000002e0: fd57 67b9 3621 683d aaf3 493d 8e75 30bd
000002f0: 0007 55bd b440 51bd ca8f c03b 6e79 36bd
00000300: c221 31bd 93fe 1a3c cb78 b5bd 8f58 dbbb
00000310: 1289 d5bc f293 093d 8127 b1bc 48c7 eebc
00000320: 7727 afbd cbcd 27be 9e1e cabd 6692 03be
00000330: 778d 0fbd d03a a1bd 27cc 80bd 8501 7c3d
00000340: 2842 383d 57c0 58bd f6dc 0a3d d223 853c
00000350: b712 b53c c948 d2bc 7437 48bd 2da0 bfbc
00000360: 4273 4a3c 4ca5 55bb 794b 1abe 347f 1b3d
00000370: f9a0 dabd 8e4d 4d3c b352 3bbd cf8d 04be
00000380: 7f60 153d 1974 0f3d 6e8c 293d e669 a8bd
00000390: 104c 9a3c ce15 243d 0982 a13a 274e 343d
000003a0: 7992 933c 0690 c73c 6fed 423c 503f 9f3b
000003b0: 0673 71bd 438b 8dbd 0a34 a9bc d760 d3bd
000003c0: ea9b b1bd b60f d0bd dcee 8c3c 64f4 0bbe
000003d0: 2635 c1bd 5ff8 a8bd c5ee 45bd 745b 24bd
000003e0: d26b 61bd c433 f73c f196 a5bd def8 98bd
000003f0: c3a9 af3c 9f9b 7ebc 79c9 62bd fcfe 19be

b1.bias f4 [32]
-0.116513744 1.1155856 0.07130953 0.227145 -0.075880766 -1.3624785 -0.12215689 -0.19927806
0.20380428 0.53370476 -0.10026832 -0.9610265 0.0054320735 0.3868981 0.05266399 0.41739753
-0.89736104 -0.08244222 -0.12917228 -0.8042552 -0.43705103 -0.17406276 0.39244446 -0.20031124
-0.17795594 -0.4357237 0.14013173 0.7850917 -1.266018 -0.40717533 -0.097583756 0.5408711
00000000: c29e eebd 82cb 8e3f bb0a 923d b398 683e
00000010: 6067 9bbd b265 aebf 642d fabd 8c0f 4cbe
00000020: 12b2 503e e0a0 083f 7a59 cdbd d505 76bf
00000030: 89ff b13b 8217 c63e 32b6 573d 21b5 d53e
00000040: 74b9 65bf 77d7 a8bd bd45 04be abe3 4dbf
00000050: 27c5 dfbe 823d 32be 7bee c83e 641e 4dbe
00000060: 153a 36be 2d17 dfbe b17e 0f3e c5fb 483f
00000070: e10c a2bf 4979 d0be fed9 c7bd 8776 0a3f

b2.weight f4 [32, 32, 3, 3]
-0.029023912 -0.15131202 -0.026242103 -0.07136749 -0.0019412405 -0.051412217 -0.006926585 -0.06973985
0.01189777 -0.2255645 -0.42065674 -1.0794553 -0.8457363 -0.1280251 0.7988673 -0.20731993
-0.7807031 -0.27584985 0.5426857 0.80134016 0.51660323 -0.21926379 -0.25116423 -0.105451874
0.34522024 -0.7198722 0.08093042 -0.22259402 0.42890838 0.6411416 -0.22227333 0.7899649
-1.5418777 -0.35412 -1.2384607 -0.31331745 -0.2783921 -0.8999403 -0.61288875 0.40955412
-0.21971612 0.5697781 -0.87085515 0.8872936 -0.16534407 1.2287655 -1.5183895 -0.7079145
0.96192586 -0.69636285 -0.11475439 -0.35642773 -0.5914169 1.4529631 -0.04383142 0.089612715
0.007497271 0.039973017 -0.066856034 -0.04659851 -0.037565995 0.05096055 0.048066594 -0.17965801
-0.6989222 -0.046928305 0.431505 0.27384388 -0.26785475 0.72130644 -0.5589246 -1.3206187
0.11715957 0.24836832 0.509667 0.68630236 -0.16967812 -0.1658164 -0.39799893 0.79327524
0.67641574 -0.33700585 -0.56575686 -0.67430425 0.25744802 -0.25804627 -0.0059162686 -0.79477125
-1.2378217 -0.46515277 0.8460039 -1.7288066 0.18767181 1.3126159 0.63954145 1.0298786
-0.5160889 -0.14185336 0.022684058 0.82284427 -0.39803997 1.0163103 -0.39894748 -0.39244834
-0.55498004 -0.01697998 0.018228056 -0.31815857 1.2916183 -1.0124433 0.7383549 0.531358
-0.19890705 0.09979761 -0.13487461 0.1987739 -0.28776094 0.08191316 0.4592483 -0.138212
-0.17224547 0.28378677 -0.78223324 1.6568615 -0.09136614 -0.13072619 -0.3027189 0.036024537
-0.027578082 -0.037974764 -0.51046175 -0.45345446 -0.12289605 -0.38103622 0.11834928 -1.1960946
-0.5054132 -0.08939344 0.059539698 0.22013696 0.38343132 -0.198585 0.25286633 -0.00830608
-0.31052297 -0.29559055 0.2509399 -1.7473853 -0.022868851 -1.47045 -0.39471686 -0.1514612
-0.9276695 0.041430634 -0.060761604 -0.018115578 -0.010810636 -0.06583696 0.0038777217 0.012473718
0.016228113 0.006836351 0.04376644 0.015534829 0.026325352 -0.0636275 0.0064181113 0.030171232
-0.051812556 0.03589409 0.051011957 0.07088584 0.13164909 -0.37998402 -0.33068544 -0.12532608
-0.8668836 -0.64355624 -0.0373652 0.098516315 0.4547276 -0.58868915 -0.30537122 0.43178996
-0.18951617 0.45713806 -0.32864022 0.60458636 -0.39439493 0.77381176 -0.83711416 -0.17253149
-1.0574145 -0.350691 1.0620661 -0.3436861 0.42887956 0.5732653 0.41890568 -0.504256
0.18503702 0.23593308 0.81891865 -0.5562621 0.39646164 0.22479399 0.7627009 0.6255721
-1.1870433 1.0431765 -0.74070984 -0.07655978 0.18001333 0.55473566 -1.2816997 -0.25840867
-0.00052237394 -0.04835751 -0.020441603 0.00017837786 -0.018060174 -0.08069752 0.016727624 -0.03373078
0.003622598 -0.121110246 -0.5595287 0.2951291 0.15057442 -1.207263 0.025843812 -0.85498416
0.36145842 1.2802523 0.8967971 -0.17912935 -0.8498226 0.57752156 -0.66817605 0.342139
-0.56676406 0.9304428 -1.2460451 -0.5407707 -0.1995054 1.1612183 0.11500484 0.29053906
-0.7690801 -0.1381548 -0.7439148 1.3503635 0.6142376 -0.32169873 0.9158603 0.0077515943
00000000: 8ec3 edbc 8af1 1abe aef9 d6bc 1e29 92bd
00000010: 3971 feba 9e95 52bd 68f8 e2bb c4d3 8ebd
00000020: ddee 423c 61fa 66be 5260 d7be 972b 8abf
00000030: 2d82 58bf 0319 03be 9182 4c3f ad4b 54be
00000040: 29dc 47bf 313c 8dbe 73ed 0a3f a124 4d3f
00000050: 1c40 043f b086 60be 9998 80be 27f7 d7bd
00000060: b5c0 b03e 8b49 38bf d9be a53d b0ef 63be
00000070: e199 db3e db21 243f 9f9b 63be 243b 4a3f
00000080: 405c c5bf 374f b5be e185 9ebf 256b a0be
00000090: 6989 8ebe 7d62 66bf 47e6 1cbf 14b1 d13e
000000a0: 43fd 60be fadc 113f 5df0 5ebf ac25 633f
000000b0: f54f 29be 3048 9d3f 965a c2bf e239 35bf
000000c0: c640 763f d644 32bf 5a04 ebbd b27d b6be
000000d0: 1967 17bf b2fa b93f 9388 33bd df86 b73d
000000e0: abab f53b bfba 233d d1eb 88bd 14de 3ebd
000000f0: cdde 19bd 02bc 503d 7ae1 443d 45f8 37be
00000100: 91ec 32bf e537 40bd 39ee dc3e 4435 8c3e
00000110: 4224 89be 8aa7 383f af15 0fbf 090a a9bf
00000120: 5bf1 ef3d 4454 7e3e 8979 023f 83b1 2f3f
00000130: 1ac0 2dbe c6cb 29be 84c6 cbbe 1614 4b3f
00000140: 9529 2d3f 088c acbe 71d5 10bf 349f 2cbf
00000150: 3ad0 833e a41e 84be 42dd c1bb 2176 4bbf
00000160: f170 9ebf 8128 eebe b693 583f 8949 ddbf
00000170: 0a2d 403e cc03 a83f fdb8 233f 10d3 833f
00000180: 671e 04bf 0242 11be ebd3 b93c eca5 523f
00000190: e5cb cbbe 7516 823f d842 ccbe fdee c8be
000001a0: 2c13 0ebf 9919 8bbc 0153 953c aee5 a2be
000001b0: c053 a53f be97 81bf d404 3d3f 1407 083f
000001c0: 4aae 4bbe b062 cc3d 921c 0abe 638b 4b3e
000001d0: 6755 93be 16c2 a73d 9822 eb3e 7287 0dbe
000001e0: 1e61 30be 804c 913e 7040 48bf 0a14 d43f
000001f0: 2c1e bbbd 16dd 05be f9fd 9abe 778e 133d
00000200: 6eeb e1bc 6d8b 1bbd 9fad 02bf 2f2b e8be
00000210: edb0 fbbd 2e17 c3be 1b61 f23d a119 99bf
00000220: c262 01bf e813 b7bd e6df 733d 956b 613e
00000230: 1c51 c43e de59 4bbe b277 813e 3916 08bc
00000240: defc 9ebe a557 97be 327b 803e 52aa dfbf
00000250: 7557 bbbc b537 bcbf 5418 cabe a518 1bbe
00000260: c07b 6dbf 2bb3 293d 29e1 78bd 1f67 94bc
00000270: 181f 31bc 87d5 86bd 6021 7e3b 915e 4c3c
00000280: d2f0 843c 7803 e03b 7044 333d cc85 7e3c
00000290: 44a8 d73c 224f 82bd 054f d23b a929 f73c
000002a0: 6739 54bd ae05 133d eaf1 503d 982c 913d
000002b0: 05cf 063e 448d c2be 9a4f a9be 7b55 00be
000002c0: 15ec 5dbf 1ac0 24bf 410c 19bd ecc2 c93d
000002d0: 0ed2 e83e 55b4 16bf 9e59 9cbe 9313 dd3e
000002e0: 8710 42be 000e ea3e 8843 a8be 2cc6 1a3f
000002f0: 22ee c9be 8718 463f 1d4d 56bf 18ac 30be
00000300: 5c59 87bf c58d b3be c8f1 873f a0f7 afbe
00000310: 1a96 db3e 84c1 123f ce7a d63e ec16 01bf
00000320: 587a 3d3e 7198 713e a7a4 513f 3167 0ebf
00000330: 05fd ca3e 6530 663e 5e40 433f 7e25 203f
00000340: 09f1 97bf cf86 853f 299f 3dbf 60cb 9cbd
00000350: 6a55 383e 2803 0e3f bc0e a4bf 244e 84be
00000360: ecef 08ba 8612 46bd 2675 a7bc f10a 3b39
00000370: eef2 93bc be44 a5bd 5f08 893c 4929 0abd
00000380: 1c69 6d3b a608 f8bd 463d 0fbf 291b 973e
00000390: 2e30 1a3e 9887 9abf 67b6 d33c 3ee0 5abf
000003a0: 1411 b93e 4fdf a33f 7f94 653f af6d 37be
000003b0: f98d 59bf 74d8 133f 960d 2bbf d82c af3e
000003c0: 7317 11bf 8031 6e3f 687e 9fbf f36f 0abf
000003d0: 254b 4cbe cda2 943f a887 eb3d 89c1 943e
000003e0: 6fe2 44bf 7478 0dbe 3371 3ebf b6d8 ac3f
000003f0: ad3e 1d3f b2b5 a4be d275 6a3f 1601 fe3b

b2.bias f4 [32]
0.015459177 -0.45908496 -0.48243684 -0.9553653 -0.674557 -0.5757926 -0.78556824 1.1224395
-0.6351583 -0.19088508 -0.18633585 -1.153627 -0.7210387 -0.97842336 0.18986656 0.8442756
-0.8616632 -0.35519448 0.36458066 -1.2458389 0.09305539 -0.8487217 -0.2502604 -0.1931284
-0.25714207 -0.18959133 -0.7857986 0.033814117 -0.6120355 0.2567607 -0.23890282 -0.9314085
00000000: 7d48 7d3c 2f0d ebbe f601 f7be d292 74bf
00000010: c4af 2cbf 2567 13bf 001b 49bf 19ac 8f3f
00000020: bc99 22bf 6177 43be d3ce 3ebe 0daa 93bf
00000030: fe95 38bf f479 7abf 616c 423e 7222 583f
00000040: f695 5cbf 0ddc b5be 51aa ba3e a677 9fbf
00000050: d393 be3d d345 59bf 2222 80be 74c3 45be
00000060: 20a8 83be 3b24 42be 192a 49bf ac80 0a3d
00000070: 5cae 1cbf 2376 833e f1a2 74be ca70 6ebf

b3.weight f4 [64, 32, 3, 3]
-0.58325857 -0.24279341 -0.042736318 0.9925041 -0.88250625 -0.03892989 -0.40018842 0.84440655
-0.28887916 -0.66099066 0.68156594 -0.4468717 -0.3259332 -0.42071927 0.28437197 0.3922211
0.17049477 0.5491922 0.12629922 0.38493 1.0787528 -0.47011843 0.1482716 0.31704378
-0.42498332 0.9978773 -0.76783514 -0.41936803 0.019112239 0.8328722 0.7371232 -0.27062005
-0.7878562 0.23542863 -0.1368095 1.1530019 0.04164681 0.760106 -1.567024 -0.14161429
0.44070482 0.07798847 -1.3588114 0.17125915 0.57071364 -0.48558322 0.07028691 -1.0569241
0.26139706 -0.0016797457 -0.5399105 -0.007131567 0.21225835 0.08914971 -0.28734443 -0.5170568
1.0082896 -0.2745485 -0.111078024 -1.7953928 -0.95217097 0.28082702 0.6955569 -0.16688094
-1.1825539 -0.14598067 0.0023636767 -0.13018404 0.13387363 -0.30040333 0.95865387 0.026171202
-0.033206258 0.29386446 -0.60805047 -0.55092335 0.19243908 -0.008601643 -0.31200925 0.39904726
-1.2899497 -0.80174303 -0.65235174 -0.8074289 0.2843415 -0.26295882 0.07399314 0.03291248
-0.29118702 0.36768943 -0.25241542 -0.49361128 0.70954424 -0.44626215 0.23295383 0.26209313
-0.026228162 0.47752696 -0.79747915 -0.09100358 0.34407774 -0.56456643 0.39078498 0.0056442055
0.412651 -0.38641846 0.10170928 0.6418977 0.085896075 0.712598 -0.67541045 -0.42026082
0.53960013 -0.16818777 -0.6346593 -0.2198256 0.31523317 0.13286299 0.11412501 0.06733651
0.28896475 0.024721157 0.38655803 -0.6648204 0.60442704 -0.4048071 -0.4381702 0.4982863
0.27922353 -0.5816985 -0.1399278 0.60504925 0.50270134 -1.0149478 0.73470557 0.21272054
-0.5061759 0.15033233 -0.27517912 0.49943253 -0.13616283 -0.5876968 0.21485403 0.5583505
-0.4131297 1.0765712 0.5626131 -0.021639477 0.12043819 -0.4061211 0.025499947 -0.12623672
0.79972357 0.1153954 0.0014833136 -0.7823742 0.35071287 -1.0980513 -0.13915107 0.10677433
-0.7492305 0.09715707 -0.1620056 0.6032231 -0.20407557 0.6583015 0.012146021 0.18312943
0.08314875 -1.2530904 -0.30008453 0.6957135 -0.1963013 -0.046524126 1.105722 -1.0232025
0.3845931 0.2348152 0.34592825 0.5354002 -0.14519873 -0.40291727 0.22768816 -0.4727593
-0.20770636 0.12984818 -0.30549175 -0.62373626 0.16790615 1.1223505 -0.39452255 0.44667614
-0.21970204 0.5386109 0.5370726 0.612484 0.53957653 0.41489613 0.68229 0.818895
-0.59079874 -0.29825923 -0.883142 -0.24768336 0.93580014 0.092177264 -0.85122174 0.13794437
0.3564839 0.39567164 -0.27500427 0.012091822 0.35498145 0.35192573 -0.26724324 -0.637459
-0.049759675 0.332942 -0.34982663 -0.6971522 -0.22953092 0.07182154 -0.03330637 -0.4117049
-0.021894848 0.26359558 -0.25994158 -0.279951 0.1932615 -0.8941118 -0.52454185 -0.38685817
-1.5096661 -0.47145894 0.5555104 0.10148811 -0.0032015194 -0.9340117 0.4167314 0.7625695
-0.08516829 0.23141178 -0.46870354 -0.20558414 -0.06257338 -0.6483839 -0.3663876 -2.27035
-0.6542172 0.5172 -0.688278 0.50797623 -0.030865561 -1.1637801 -0.30594638 -0.88462335
00000000: 6f50 15bf d69e 78be 470c 2fbd c014 7e3f
00000010: eeeb 61bf f374 1fbd 7fe5 ccbe 072b 583f
00000020: f8e7 93be af36 29bf 1b7b 2e3f 5ecc e4be
00000030: b7e0 a6be 8468 d7be 3499 913e 34d1 c83e
00000040: 2e96 2e3e dc97 0c3f 9554 013e 8c15 c53e
00000050: 9214 8a3f 5db3 f0be 83d4 173e 9053 a23e
00000060: 6a97 d9be e374 7f3f d890 44bf 68b7 d6be
00000070: 4591 9c3c 1d37 553f 1bb4 3c3f b68e 8abe
00000080: f2b0 49bf 3414 713e ca17 0cbe 9195 933f
00000090: d895 2a3d 4f96 423f 3e94 c8bf 5603 11be
000000a0: 10a4 e13e 6bb8 9f3d 88ed adbf 8f5e 2f3e
000000b0: 4a1a 123f 5d9e f8be 95f2 8f3d 4a49 87bf
000000c0: d6d5 853e ea2a dcba 9337 0abf ecaf e9bb
000000d0: 415a 593e 2094 b63d cf1e 93be d65d 04bf
000000e0: a20f 813f 9f91 8cbe e07c e3bd 6ecf e5bf
000000f0: 7ac1 73bf 8fc8 8f3e 0410 323f d6e2 2abe
00000100: ed5d 97bf f57b 15be eae7 1a3b f74e 05be
00000110: 2b16 093e 77ce 99be 576a 753f fd64 d63c
00000120: 4903 08bd 6775 963e 32a9 1bbf 5009 0dbf
00000130: c00e 453e e8ed 0cbc adbf 9fbe ec4f cc3e
00000140: 121d a5bf 083f 4dbf 8600 27bf a9b3 4ebf
00000150: 3695 913e 8aa2 86be b789 973d 3dcf 063d
00000160: 7716 95be ca41 bc3e 983c 81be 9eba fcbe
00000170: b1a4 353f 797c e4be 738b 6e3e 1231 863e
00000180: 71dc d6bc 6a7e f43e 9827 4cbf 1660 babd
00000190: f52a b03e 6d87 10bf f814 c83e 07f3 b83b
000001a0: fe46 d33e a4d8 c5be f44c d03d 6853 243f
000001b0: 48ea af3d d36c 363f b3e7 2cbf 6d2c d7be
000001c0: 3c23 0a3f 6a39 2cbe 0879 22bf f619 61be
000001d0: 3e66 a13e 3c0d 083e 60ba e93d b9e7 893d
000001e0: 30f3 933e 0684 ca3c efea c53e ab31 2abf
000001f0: bbbb 1a3f e042 cfbe d857 e0be 621f ff3e
00000200: 63f6 8e3e 31ea 14bf 3c49 0fbe 82e4 1a3f
00000210: 09b1 003f cfe9 81bf aa15 3c3f 6ad3 593e
00000220: be94 01bf b8f0 193e 47e4 8cbe 9fb5 ff3e
00000230: 456e 0bbe 4c73 16bf b202 5c3e 0ff0 0e3f
00000240: bc85 d3be 16cd 893f 6a07 103f 4645 b1bc
00000250: 4ca8 f63d 1bef cfbe 44e5 d03c 3344 01be
00000260: afba 4c3f 6c54 ec3d bf6b c23a ad49 48bf
00000270: a390 b33e f28c 8cbf 9e7d 0ebe 80ac da3d
00000280: 92cd 3fbf 49fa c63d cce4 25be d46c 1a3f
00000290: 30f9 50be 7286 283f 1b00 473c 4886 3b3e
000002a0: e449 aa3d 4465 a0bf aea4 99be 481a 323f
000002b0: 3503 49be 1590 3ebd 4c88 8d3f 4df8 82bf
000002c0: 63e9 c43e 6573 703e 821d b13e fd0f 093f
000002d0: faae 14be 2c4b cebe 1627 693e 820d f2be
000002e0: fab0 54be ecf6 043e 6a69 9cbe 2ead 1fbf
000002f0: 97ef 2b3e 2ea9 8f3f dcfe c9be bcb2 e43e
00000300: 92f9 60be 67e2 093f 977d 093f c0cb 1c3f
00000310: b021 0a3f 446d d43e 8faa 2e3f 1aa3 513f
00000320: 963e 17bf 6fb5 98be 9815 62bf b5a0 7dbe
00000330: 9990 6f3f 6fc7 bc3d abe9 59bf 4a41 0d3e
00000340: 0f85 b63e 7995 ca3e 5ccd 8cbe c71c 463c
00000350: 21c0 b53e 9c2f b43e 1bd4 88be 8330 23bf
00000360: cdd0 4bbd 6077 aa3e 7a1c b3be 9178 32bf
00000370: 270a 6bbe 2c17 933d 436c 08bd fcca d2be
00000380: d35c b3bc 00f6 863e 1017 85be bd55 8fbe
00000390: 58e6 453e 83e4 64bf 6048 06bf 4612 c6be
000003a0: bd3c c1bf 1163 f1be ee35 0e3f 00d9 cf3d
000003b0: 95d0 51bb 641b 6fbf d15d d53e c137 433f
000003c0: b66c aebd 36f7 6c3e e9f9 efbe a684 52be
000003d0: 7926 80bd 7dfc 25bf 2897 bbbe 6a4d 11c0
000003e0: c77a 27bf 3867 043f fd32 30bf bb0a 023f
000003f0: c6d9 fcbc bff6 94bf 01a5 9cbe ad76 62bf

b3.bias f4 [64]
-0.67921674 -0.24221417 0.3664701 0.779898 -0.4855329 -0.34936622 0.6102174 -0.8858065
0.00849337 -0.07511396 0.1595262 0.9478651 -0.13048142 -0.32094103 -1.0462979 -0.2198892
-0.20934372 -0.9541669 0.08247281 0.12511136 -0.69161284 -0.1015982 -0.61884123 0.07053541
-0.17820084 -1.7419657 0.19662769 -0.62485754 0.21161579 -0.7541157 -0.17206031 -0.1721649
-0.4274196 0.39445528 1.0663601 -1.2913479 0.34446 -0.17500255 -0.944595 -0.37060282
-0.39023212 -0.6016217 0.7315899 -0.3718564 0.3296719 -0.10118207 -1.0840216 -0.8828427
0.5094736 1.2088914 2.2732613 0.5393994 -0.8310215 0.10799808 -0.061899126 -0.12651889
-0.81521964 -0.24899478 -0.13888109 -0.27043408 0.46728808 0.22903873 0.84054995 -0.39734825
00000000: 26e1 2dbf fe06 78be f8a1 bb3e 65a7 473f
00000010: c597 f8be 21e0 b2be 3537 1c3f 37c4 62bf
00000020: c727 0b3c 59d5 99bd d65a 233e 4aa7 723f
00000030: ec9c 05be 6252 a4be 17ed 85bf a22a 61be
00000040: 335e 56be 4844 74bf 81e7 a83d 311d 003e
00000050: 8a0d 31bf b812 d0bd 616c 1ebf de74 903d
00000060: 487a 36be bbf8 debf c558 493e aaf6 1fbf
00000070: cfb1 583e ba0d 41bf 9430 30be ff4b 30be
00000080: bed6 dabe 0bf6 c93e 7d7e 883f e34a a5bf
00000090: 105d b03e de33 33be fad0 71bf a7bf bdbe
000000a0: 81cc c7be e103 1abf 7a49 3b3f f663 bebe
000000b0: c1ca a83e 8c38 cfbd 38c1 8abf fb01 62bf
000000c0: dd6c 023f f4bc 9a3f 1d7d 1140 1416 0a3f
000000d0: d3bd 54bf 192e dd3d f089 7dbd 2b8e 01be
000000e0: 3cb2 50bf 7df8 7ebe d836 0ebe 5676 8abe
000000f0: 6240 ef3e 2189 6a3e 482e 573f 3b71 cbbe

c1.weight f4 [64, 64, 2, 2]
0.11760804 0.7091669 0.047661994 -0.31990567 -0.034706898 -0.05511823 0.079940036 0.028988816
-0.65898585 -0.7924657 -0.13294925 -0.07778474 0.077235624 -0.010150443 -0.6886219 -0.62630594
0.80564564 0.4159765 0.09927516 -0.18341407 -0.063762784 0.5097169 0.11807544 -0.541476
-0.7503183 -0.003504775 -0.8866269 0.10053259 0.6052108 -1.2149642 -0.852618 -0.25143567
0.2042535 -0.034783114 0.4139024 -0.7364361 0.030785954 0.024131224 -0.04041541 -0.0078643635
-0.17977525 -0.38005757 0.16687222 0.3183796 -0.013712839 0.32555848 -0.80140394 -0.792183
0.040458955 -0.054077 0.058942717 -0.033536896 -0.01735921 -0.03607694 -0.0004269928 -0.017974138
-0.4307225 -0.19321787 -0.36126423 0.24528536 0.024512237 0.0062257946 -0.039174415 -0.030756807
0.21339038 -0.26356846 0.44156545 0.16395292 0.11386682 0.09059954 0.5924501 0.08620784
-0.12776338 -0.749532 -0.40642515 -0.5070153 -0.6319665 0.5316798 0.66451365 -0.26629403
-0.49997965 -0.14043313 -1.0412313 -0.0021396594 -0.022681266 0.03411345 0.02660391 -0.034613937
0.47018382 -1.0146271 -0.6001997 -0.262346 -0.39813766 0.32377467 -0.5578676 -0.20939866
-0.045856748 -0.059881788 -0.053060457 0.014235772 0.7265821 0.1693595 -0.6292216 0.17795354
-0.29676005 -0.40980926 -0.09372375 -0.90803206 0.5878131 0.7962225 0.041032586 -0.2531643
-0.26521847 -0.11603249 0.30451366 0.10989994 0.7425985 -0.3277491 0.33838692 0.15621662
-0.037983157 -0.020052068 0.029000934 -0.027800255 0.026761381 0.016599208 -0.03440643 -0.07265041
0.053745948 -0.56909174 0.31091785 -0.03710796 -0.2500941 -0.42673013 0.3457969 0.6053267
0.095224634 0.22029115 -0.49497324 -0.55114675 0.3761565 -1.445522 -0.23674588 -0.25874078
-0.017009202 0.40495563 -0.35974476 0.16055216 -0.023290798 -0.010497689 0.011219095 0.0025026873
0.08407168 -0.21809614 -0.8219177 0.016270718 0.8337609 0.24542649 -1.5847712 -0.17645758
-0.5557744 -0.45217794 -0.9519016 0.3409783 0.26081455 0.035030544 0.2859284 -0.28179866
0.07241483 -0.24419108 0.15692866 -0.29416242 -0.42127568 0.50355154 -0.2046305 -0.24656677
-0.13705555 -0.029836137 -0.0033350908 -0.53145564 -0.009016499 -0.057015687 0.051390342 -0.0122035965
0.34525067 0.13631436 -0.040521685 0.029403446 0.7193647 -0.2661743 1.0411339 -0.62452996
0.6338023 -0.8289623 0.10979908 0.024193427 0.15459332 -0.567738 -0.29201856 0.25557536
-0.8855215 -0.6379168 -0.31400833 -0.25981605 -0.2679999 -0.026188416 -0.32508478 -0.14703578
0.3219377 -0.38076544 -0.5265847 -0.3845109 -0.85262686 0.34949923 -0.8729554 -0.30055603
0.033930406 -0.11760921 1.1531227 -0.4613296 -0.034616493 -0.0111937355 -0.045191903 0.0106551275
-0.0032012102 0.17226374 -0.45957795 -0.1711989 0.3001857 0.03349872 -0.24926607 0.2568759
0.29885083 -0.52872366 -0.7836376 0.22697549 0.027293546 -0.69708335 0.048134092 0.20496914
-0.3173593 -0.44801754 0.20910855 -0.03507089 -0.0007770011 -0.7766276 -0.16484493 -0.18197355
0.22196664 0.8535511 0.07204758 0.4173349 0.2972616 0.10094172 1.0614835 0.6562521
00000000: 7cdc f03d f68b 353f 3939 433d adca a3be
00000010: d228 0ebd a7c3 61bd 9ab7 a33d f479 ed3c
00000020: 4cb3 28bf 08df 4abf d923 08be 9b4d 9fbd
00000030: b62d 9e3d 0b4e 26bc 8649 30bf 9655 20bf
00000040: cb3e 4e3f dffa d43e c650 cb3d e6d0 3bbe
00000050: 1096 82bd cf7c 023f 89d1 f13d 2c9e 0abf
00000060: dc14 40bf 5eb0 65bb fbf9 62bf 08e4 cd3d
00000070: 18ef 1a3f f283 9bbf 2c45 5abf 2dbc 80be
00000080: d427 513e bd78 0ebd 04eb d33e 1487 3cbf
00000090: d332 fc3c d8ae c53c a18a 25bd 88d9 00bc
000000a0: 0117 38be e896 c2be 8de0 2a3e a702 a33e
000000b0: d1ab 60bc 9aaf a63e cf28 4dbf 81cc 4abf
000000c0: 4ab8 253d d87f 5dbd eb6d 713d fc5d 09bd
000000d0: e734 8ebc 6ac5 13bd 01de dfb9 803e 93bc
000000e0: a987 dcbe e8da 45be a0f7 b8be 162c 7b3e
000000f0: e3cd c83c c001 cc3b 5a75 20bd b3f5 fbbc
00000100: 0283 5a3e 72f2 86be de14 e23e 46e3 273e
00000110: 0233 e93d 408c b93d cfaa 173f bc8d b03d
00000120: 67d4 02be 54e1 3fbf f516 d0be c1cb 01bf
00000130: 8ec8 21bf 2b1c 083f 911d 2a3f b157 88be
00000140: 55fd ffbe b4cd 0fbe 1147 85bf 8739 0cbb
00000150: 10ce b9bc 8cba 0b3d 71f0 d93c 58c7 0dbd
00000160: efbb f03e 4ddf 81bf b0a6 19bf 3752 86be
00000170: b3d8 cbbe cbc5 a53e 69d0 0ebf 9a6c 56be
00000180: 49d4 3bbd 9b46 75bd ec55 59bd 283d 693c
00000190: 4901 3a3f 946c 2d3e ab14 21bf 7439 363e
000001a0: eff0 97be 85d2 d1be 3df2 bfbd ca74 68bf
000001b0: eb7a 163f 3dd5 4b3f c911 283d c09e 81be
000001c0: b7ca 87be 71a2 edbd 37e9 9b3e 3813 e13d
000001d0: ef1a 3e3f bbce a7be 0d41 ad3e 40f7 1f3e
000001e0: 3a94 1bbd 3c44 a4bc 5e93 ed3c 5cbd e3bc
000001f0: af3a db3c 10fb 873c c2ed 0cbd bdc9 94bd
00000200: b624 5c3d ffaf 11bf a030 9f3e 84fe 17bd
00000210: 550c 80be 5f7c dabe 4b0c b13e b1f6 1a3f
00000220: 2205 c33d 0194 613e 226d fdbe f417 0dbf
00000230: 9697 c03e dd06 b9bf 836d 72be ac79 84be
00000240: e256 8bbc 5856 cf3e 7730 b8be c967 243e
00000250: 58cc bebc 80fe 2bbc 4cd0 373c 2004 243b
00000260: c62d ac3d 9854 5fbe 3369 52bf 2b4a 853c
00000270: 5b71 553f 1551 7b3e c8d9 cabf 4cb1 34be
00000280: 3b47 0ebf de83 e7be d3af 73bf b594 ae3e
00000290: 7c89 853e 307c 0f3d 3565 923e ea47 90be
000002a0: 3a4e 943d 3a0d 7abe e8b1 203e 759c 96be
000002b0: 72b1 d7be c1e8 003f a88a 51be 007c 7cbe
000002c0: 4a58 0cbe ea6a f4bc 8a91 5abb 7a0d 08bf
000002d0: f0b9 13bc 4889 69bd ae7e 523d 98f1 47bc
000002e0: b2c4 b03e fe95 0b3e 11fa 25bd 7fdf f03c
000002f0: 4928 383f ff47 88be e043 853f 32e1 1fbf
00000300: de40 223f e036 54bf 57de e03d 4b31 c63c
00000310: b64d 1e3e 4757 11bf 7583 95be c6da 823e
00000320: 89b1 62bf 844e 23bf b3c5 a0be 9c06 85be
00000330: 4837 89be 1789 d6bc 8371 a6be 8c90 16be
00000340: 05d5 a43e b0f3 c2be 41ce 06bf 9dde c4be
00000350: c145 5abf 90f1 b23e 017a 5fbf 7be2 99be
00000360: 9cfa 0a3d 19dd f0bd 8699 933f 6533 ecbe
00000370: 06ca 0dbd ee65 37bc 251b 39bd d892 2e3c
00000380: 65cb 51bb e865 303e cd4d ebbe c44e 2fbe
00000390: f1b1 993e f435 093d 9b3f 7fbe 3d85 833e
000003a0: fa02 993e 6f5a 07bf 799c 48bf 436c 683e
000003b0: b796 df3c 0e74 32bf 4128 453d 6ee3 513e
000003c0: eb7c a2be 8e62 e5be 8d20 563e 7ea6 0fbd
000003d0: a9af 4bba 11d1 46bf 1ccd 28be 4657 3abe
000003e0: 394b 633e 5382 5a3f ae8d 933d ecac d53e
000003f0: ac32 983e 88ba ce3d b1de 873f 2300 283f

c1.bias f4 [64]
-1.6780789 -0.7003652 -1.7214423 -1.8805681 0.18714206 -1.6626328 -1.5180483 -1.1872449
-1.7717185 -1.7031516 -2.3271768 -2.0235226 -1.1850482 -2.7198231 -1.253733 -1.8704958
-2.3058758 -1.5415477 -2.3623643 -0.16912971 -1.5348351 -0.22062676 -0.87269574 -0.01659682
-1.9227359 -1.6081666 -2.105512 -1.1952593 -2.4254262 -1.0831704 0.18213233 -1.8205714
-1.6804377 -2.532855 -2.0366695 -2.5079482 -0.7312941 -1.2066555 -1.91803 -1.2104487
-0.622187 -1.3119467 -1.1967237 -2.0542066 -1.2211715 -1.7102847 -1.775425 -2.218775
-0.6422011 -1.6491603 -1.9846169 0.94552815 0.40703633 -2.0113847 -1.1085777 0.38875392
-1.9959977 -1.583154 -1.9257243 -1.1866707 0.10324041 0.5211688 -1.6977789 -1.8672217
00000000: 4acb d6bf 224b 33bf 3958 dcbf 75b6 f0bf
00000010: 2ba2 3f3e 27d1 d4bf 684f c2bf a4f7 97bf
00000020: acc7 e2bf df00 dabf 77f0 14c0 6581 01c0
00000030: a9af 97bf 9511 2ec0 537a a0bf 686c efbf
00000040: 7893 13c0 6f51 c5bf fa30 17c0 5730 2dbe
00000050: 7a75 c4bf fbeb 61be fd68 5fbf 0ef6 87bc
00000060: 361c f6bf 67d8 cdbf b5c0 06c0 42fe 98bf
00000070: 2f3a 1bc0 54a5 8abf e680 3a3e 7c08 e9bf
00000080: 9518 d7bf 4c1a 22c0 cb58 02c0 3982 20c0
00000090: 1736 3bbf b073 9abf 0282 f5bf fcef 9abf
000000a0: a647 1fbf dfed a7bf 3e2e 99bf 1f78 03c0
000000b0: 594f 9cbf 9cea dabf 2041 e3bf 6900 0ec0
000000c0: 4b67 24bf af17 d3bf ed07 febf 220e 723f
000000d0: 1167 d03e 87ba 00c0 e0e5 8dbf c10a c73e
000000e0: da7c ffbf caa4 cabf 227e f6bf d3e4 97bf
000000f0: b56f d33d 526b 053f d250 d9bf 1f01 efbf
